results/model.pth (torch_old, 179733 bytes, 18 tensors)

prototypes f4 [15, 40]
00000000: 044b fe3e 42e3 c93e 4fbd 263f 8b32 723e
00000010: 3b69 cc3e 007c 943e 83cc 9a3e 3a9f 263d
00000020: 8ac0 073f f322 af3e ebf0 063f d650 1a3f
00000030: 4a4d fc3e 9041 c43e f68a c53e dcc2 8a3e
00000040: 7748 b63e ea71 ad3e 35b8 093f e1a1 aa3e
00000050: 25fc a73e e362 cb3e e7bc 1a3f 5152 193f
00000060: 2cae ce3e 6d81 253f de1d df3e 59ac f53e
00000070: a763 9c3e ef02 803e 6bb7 fd3e 9c03 343e
00000080: 39b0 173f ccc3 3f3f 887e 133f 6d55 653f
00000090: 4d31 eb3e 5a38 2e3e cf33 8c3e bf30 bb3e
000000a0: 870f dd3e 4c3f 783d aa21 b73e 2bb0 6a3e
000000b0: 759c d83e 5062 833e a3bd e03e 80a2 6e3f
000000c0: b7be 003f c236 873e 8923 2c3f 4171 1e3f
000000d0: d7bc ea3e 3167 c03d 50c7 123e 9891 213f
000000e0: 3355 f03e 14af e73e 222e 4a3f bd72 a83c
000000f0: dd04 c73e 04c9 863e 2d53 b43e 6c82 103f
00000100: c601 d03e 89c2 bd3e fd6a da3e 9640 613e
00000110: 5725 cb3e 4c15 cc3e 325b 043f 9788 273f
00000120: cdd3 183f 9dd3 583f cba3 e03e f2d3 023e
00000130: 188d f03e 723d 503e 190e ea3e d68b 913f
00000140: 6a31 bb3e f4f3 d43e 4e10 653c 56dd 3a3f
00000150: a9c3 bf3e dd7e eb3e b7e3 243e 8888 f7bc
00000160: 90ca 463f 46df 4a3f e02f ba3e bf4f 653f
00000170: c1a6 f93e fa8d 853e 6038 253e 2e17 0a3f
00000180: 2d88 013f 753f ac3e ddea 363e 225a bf3d
00000190: 4fa1 a83e beb2 913e 24b9 e63e 8881 d73e
000001a0: b578 f03e 072a 6a3f 15ef 903e 0374 163f
000001b0: daf0 403e 0d69 2c3e ad22 843e f974 0d3f
000001c0: 8189 3d3f 0240 0b3f 1a57 7a3f 6e2d 373f
000001d0: a78b 263f 8c47 5c3f 4f00 443e a0ed f33d
000001e0: b850 db3e 373b b93e d0d0 b23e 68c1 fb3e
000001f0: df11 1c3f b095 263f 93bb 423f 3588 623f
00000200: 70a4 ca3e fff1 e73e f430 063f e7b4 e23e
00000210: 9146 273f d794 3e3f b5ef 1b3f 9840 643f
00000220: 8e44 133f c5b1 a33e f428 0c3f 1ae7 823f
00000230: b8fe 913e 4fc3 0c3f 4ea7 893e f16d 2e3e
00000240: d74f 5b3e bdcb c73e d26e 3c3f 2361 353e
00000250: 98fa d63e f960 183e 646f fa3e 4d2b 2a3f
00000260: 8750 cb3e e55c 6c3e 238a d53e f9e2 5e3f
00000270: eb35 5c3f 503e af3e 927e 813f add0 663d
00000280: 41d8 133f f4ba 263f 9711 ea3d c279 3f3f
00000290: f937 0d3f f98c 1c3f 2356 3a3f 43e7 343f
000002a0: 8beb ac3e 86fa 3a3f 0297 533f 0960 123f
000002b0: 17cc 293f 91e1 343f ec48 833d 1ba4 4e3f
000002c0: 7ade 103f 7453 9a3e c13e 713f 126d 383e
000002d0: 7570 593e 185b 053f 0f16 433e 286a 093f
000002e0: 3011 943e dca3 293f 130f 163f d3ab 803e
000002f0: 6195 033f a879 b53e e209 1f3f e6c4 4f3f
00000300: bf30 493e e9f0 b03e 8303 853f 7eaf 0c3e
00000310: f866 5e3f fc7f 023f 9161 503f 6fc0 1b3f
00000320: 7cb4 d33e ca09 db3c 771c 523e be78 633f
00000330: 268d 0d3f 4d99 ab3e b208 4e3e 690a 113e
00000340: 41e6 073f 7045 e53e b446 7f3e 6343 b33e
00000350: 78bc a73e 17a3 3e3e e97c 773e 0d84 433f
00000360: 9a1c 9b3e 82c9 b83e 4e13 493f b1b4 963e
00000370: 1185 dd3e 8419 063f 8f3b d63e 50c5 943e
00000380: 891e c23e d09a ba3e f635 923e d57f 2b3e
00000390: e802 b53e 239f 3e3e d1c6 253f b6cb 6a3f
000003a0: 442e 333f 38cd 4f3f b3ce 943e 8806 0fbe
000003b0: 2a5e 8c3e 363e fd3d 240b 433f 0bfb a43d
000003c0: a6d1 ce3e 299c f23e 5551 0c3e 763a d43e
000003d0: 58bf d43e 21fd f33e ecd8 ec3e c661 923d
000003e0: a32e 1f3f c31f 2c3f b41d ec3e 9022 273f
000003f0: e9de 063f 3f5b cd3e 4baa a03e 5b79 763e
0.49666607 0.39431196 0.6513261 0.23652093 0.39924034 0.29000854 0.30234155 0.040679194
0.53028166 0.34206352 0.5271136 0.60279596 0.49277717 0.3833127 0.3858258 0.2710179
0.3560216 0.33875972 0.537967 0.3332663 0.3280956 0.39723882 0.6044449 0.5989123
0.40367258 0.64650613 0.43577474 0.47983053 0.3054478 0.25002238 0.49554 0.17579502
0.5925327 0.7490814 0.57614946 0.89583474 0.4593605 0.17013684 0.27383277 0.36560628
0.4317591 0.06060724 0.3576787 0.22918765 0.42306867 0.25660944 0.4389468 0.93216705
0.5029101 0.26408964 0.6724172 0.6189156 0.45847198 0.09394682 0.14333844 0.63112783
0.46940002 0.45250762 0.78976643 0.020562524 0.38870898 0.26325238 0.35219708 0.5644901
0.40626353 0.3706248 0.4265975 0.21997294 0.39676926 0.39859998 0.51701653 0.65442795
0.5969818 0.84697896 0.43874964 0.12776163 0.46982646 0.2033594 0.4571388 1.13708
0.36561137 0.4159237 0.013980938 0.7299398 0.37453964 0.45995227 0.16102491 -0.03021647
0.77652836 0.7924694 0.3636465 0.8957481 0.48760036 0.26084882 0.16134787 0.5394162
0.5059841 0.33642164 0.1786303 0.09343363 0.3293557 0.28456682 0.45063126 0.42091012
0.46967092 0.9147038 0.28307405 0.5877077 0.18841878 0.16836949 0.25807706 0.5525661
0.7403794 0.54394543 0.97789156 0.71553695 0.6505684 0.8604667 0.19140743 0.11910558
0.4283502 0.3617799 0.34924936 0.49170995 0.6096477 0.65072155 0.76067466 0.88489085
0.3957858 0.45301816 0.52418447 0.44278643 0.6534205 0.7444586 0.6091264 0.8916106
0.5752648 0.31971565 0.5474999 1.0226777 0.28514647 0.5498552 0.26885456 0.17034127
0.21417175 0.39022627 0.736066 0.17712836 0.41988063 0.14880742 0.4891311 0.6647232
0.39709875 0.23082311 0.41706952 0.8706508 0.8601977 0.34227228 1.0116751 0.056351352
0.5775185 0.6512902 0.11429136 0.7479516 0.5516353 0.6115261 0.72787684 0.7066538
0.33773455 0.7303852 0.82652295 0.5717779 0.6632704 0.7065669 0.06410393 0.80719155
0.5658947 0.30141795 0.9423638 0.18010357 0.21234305 0.52092123 0.19051383 0.53677607
0.28919363 0.66265655 0.5861675 0.2513109 0.5139981 0.3544438 0.62124455 0.8115982
0.19647501 0.345588 1.0391697 0.1373882 0.8687587 0.5097654 0.81398875 0.60840505
0.41348636 0.026738066 0.20518671 0.8885611 0.552935 0.33515397 0.20120504 0.14164127
0.53085715 0.4477954 0.24929315 0.3501235 0.32760978 0.18616901 0.24168743 0.7637337
0.3029526 0.36091238 0.7854508 0.29434732 0.43265584 0.52382684 0.41842315 0.29056787
0.3791392 0.36446238 0.28556794 0.16747983 0.3535378 0.18615393 0.64756495 0.9171709
0.6999247 0.81172514 0.2906395 -0.13967335 0.2741559 0.123653814 0.76188874 0.08055695
0.40394324 0.47384766 0.137029 0.41450852 0.41552234 0.4765406 0.46259248 0.07147555
0.62180537 0.67235965 0.46116412 0.65287113 0.52683884 0.40108678 0.31379923 0.24069731

autoencoder.econv1.weight f4 [32, 1, 3, 3]
00000000: 845b ff3e c77f 8c3f dd24 583f 1e1e 0f3e
00000010: 2fdc 863f 495f c43e 576b 05be 5dbf 19bd
00000020: 8e20 9fbe 19c3 a23b 4d80 113f 36ea 9a3f
00000030: 5e14 ddbe 0cf0 823f 2520 373f 4d3e 32bf
00000040: 4bf5 1cbe 1442 363e 0b61 9a3e dd5d dbbe
00000050: b6f1 05bf 9552 a9bc 1e3d 45bf 744a 96be
00000060: 3849 e0bd c1e7 25bf 2aa5 e23d 0dc7 123d
00000070: 7280 103f d3e2 f03d c8ce f93e 08a7 723f
00000080: b66b 33be 00cf 153f c6fd 213f 2175 933e
00000090: b84d 323f 4775 b93e 30ed 5ebe b892 3b3d
000000a0: 73df 18bf dd3e 1cbf 57b3 f5be f685 2bbf
000000b0: f491 0bbf df82 56bf 489d 523c 1e93 2d3f
000000c0: 222c 64bf 0c53 233f e3f8 963f 2bf1 c1be
000000d0: 26cf 223f bbc9 73bd be5d 01be 70d4 8e3d
000000e0: 3ec5 e73f 15d0 3bbf 05cb cf3d 8adb c03f
000000f0: b118 88be acc9 fa3e 7c93 f63e 4e18 593f
00000100: 1e66 bc3e d0ef d0bd 02b7 0d3f 4a6a e7bd
00000110: 13db 83bf 5dcf 883e a31f 87bf 4c8d 6fbf
00000120: 6d3e 88bd 6f03 e0be f669 21bf 09db 88be
00000130: 0673 2abf 365d 52be aeda 5ebe a0e6 31bf
00000140: fffb a2be 3e07 5abd ca7a 41be 106a fcbe
00000150: 4b99 a9be b20a 89bf 0eae c5be fdbe 24bf
00000160: 1104 37bf 9062 bcbd 5a4a 80be af4b b03d
00000170: cd44 ab3e 59c8 043f 905c 503f 0846 3e3f
00000180: 80bf a93e e4a7 233f 53f3 fd3e 899c 033e
00000190: a64a 2e3f 1b4b c93e c9b4 e73e 2e4d 4a3f
000001a0: 4dbb 363f a54d 373f f9b2 a43e 13a5 d23e
000001b0: 6e8f 4e3e 3e1f 00bf 3067 09bf cdf8 febe
000001c0: 293c 6bbf f3ab d6be d2f3 003f 98ab 0abe
000001d0: dc48 8b3c 0515 31be 07d6 4bbe 14d1 c0be
000001e0: 892a 07bf 0b6e 86bf ef8f 4ebd 99e8 29bf
000001f0: 00f5 36bf 0637 da3e 9463 72be 851c 5fbe
00000200: dbb8 e73e 30e1 423e d80a d43e 4b41 a53f
00000210: af1e 3c3f 404c 903f 378c ae3f 3f65 75be
00000220: 5bb0 afbe a5f5 24bf aead 00bf 52e9 ffbe
00000230: f0d1 6cbf c0cb 8b3d 339f dfbd 65dc 81be
00000240: e974 493f 179c ba3f 0c2a 683f 03f6 9d3f
00000250: 22e9 953f a645 8a3e 1d57 893e 4ea4 513e
00000260: 237c 243c c384 46be e015 1a3f f801 7f3d
00000270: 5ef6 1b3f bce3 463f 2c41 c53e fd16 b33e
00000280: 764b 8f3e 5f5e 02bf d993 d53e a581 833e
00000290: cc03 6a3f b714 0a3f 6ca4 f93e 651b 753f
000002a0: 7134 1a3f 2cac 893f e418 633f 0e34 4c3f
000002b0: b7f5 98bd c8cd 01bf 8f20 a73e 03d2 9ebe
000002c0: ad26 81bf 0d1c f03e e027 41be f19f 2cbf
000002d0: 0433 8d3e ea53 c33d 275b ef3e a5ca febb
000002e0: 9777 033f b39f 173f 815e 863d f994 483f
000002f0: 28a4 a13e 2a22 07bf 6f87 6dbf df60 34bf
00000300: bd8f 73bf ffd6 b8bf 5996 fbbd b702 58bf
00000310: 1dc6 c6be db2d fcbe a9bc 9b3d 875b 8b3c
00000320: 3fb5 0a3d 4a86 813e d35a 61be 2521 12bf
00000330: 83bd 63bf b0f3 90bf a1c1 42bf be37 bf3e
00000340: f3f6 38be 46a0 b1be 5949 76bd af14 8fbe
00000350: a21b 54bf 4e33 65be f73c 2cbf 23b6 98be
00000360: f210 743e e7aa b53e a76e 283f bf9c ff3e
00000370: 1120 3d3f bb8f 843f 15bd 273f 8b39 e93e
00000380: 1e65 663f a139 833d e0c5 ed3e 4422 453f
00000390: 91c1 d93e aa1f 863f e746 e63e 0531 a5bc
000003a0: 7dca b03e 51a9 843e 81eb 753e 3877 393e
000003b0: e2f8 6f3f 9aae 223f 4ae0 623f 3d4e 553f
000003c0: adbd 953f 2691 a73f 58ae 933f 38d9 693f
000003d0: 51aa 463f 25f9 953f 4bcf 8f3f 2716 343f
000003e0: 39c3 ab3f 6b77 a63f ad4c 443f 35a4 a23f
000003f0: 2329 033f 4cec 043f bc77 a13f 5b76 833f
0.49874508 1.0976495 0.8443125 0.13976333 1.0535945 0.38353947 -0.13029228 -0.037536014
-0.31079525 0.004967105 0.56836396 1.2102726 -0.431796 1.0229506 0.71533424 -0.69626313
-0.15327947 0.17798644 0.30152163 -0.4284505 -0.52321947 -0.020669261 -0.7704638 -0.29353678
-0.10951465 -0.64806753 0.11066659 0.03583436 0.5644599 0.11762013 0.48790574 0.9478612
-0.17521557 0.5851898 0.6327785 0.288003 0.6964984 0.36222288 -0.21770167 0.04579422
-0.59715956 -0.6103342 -0.47988388 -0.67001283 -0.5451958 -0.83793443 0.012854882 0.6780261
-0.8912984 0.63798594 1.1794704 -0.3787931 0.63597333 -0.059518557 -0.12633416 0.06974113
1.8107069 -0.73364383 0.10146145 1.5066998 -0.26581338 0.48981988 0.48159397 0.8480271
0.3679666 -0.102019906 0.5535737 -0.1129957 -1.0301231 0.26720706 -1.055653 -0.93574977
-0.06652532 -0.4375262 -0.6305231 -0.2672961 -0.6658176 -0.2054337 -0.21763107 -0.6949253
-0.31832883 -0.053229563 -0.18894497 -0.4929967 -0.33124766 -1.0706389 -0.38609356 -0.64353925
-0.7149058 -0.09198487 -0.25056726 0.086081855 0.33450928 0.51868206 0.8139124 0.7432561
0.33153915 0.63928056 0.49599704 0.12852682 0.68082654 0.39315113 0.45255116 0.79024017
0.7137955 0.7160285 0.32167795 0.41141567 0.20171902 -0.5004767 -0.53673077 -0.49799195
-0.9188867 -0.41928062 0.5037204 -0.1354202 0.017002515 -0.17293175 -0.19905864 -0.37659514
-0.5279928 -1.0502332 -0.050430235 -0.6637054 -0.7146759 0.42620105 -0.23670799 -0.21788223
0.4525822 0.19031215 0.41414523 1.2910551 0.7348432 1.127327 1.363654 -0.23964404
-0.34314236 -0.64437324 -0.50265014 -0.49982697 -0.9250784 0.068259716 -0.10919037 -0.2536346
0.78694016 1.4578885 0.9068916 1.2340702 1.1711771 0.27006263 0.26824275 0.20472834
0.010039362 -0.19386582 0.6018963 0.062257737 0.609228 0.77691245 0.38526285 0.34978476
0.2798726 -0.5092525 0.4171436 0.25684848 0.91412044 0.5393786 0.48758256 0.95744926
0.6023627 1.0755668 0.88709855 0.7976693 -0.074687414 -0.5070462 0.32642028 -0.310196
-1.0089928 0.468964 -0.18862867 -0.6743155 0.27577984 0.0953749 0.4674923 -0.007775622
0.51354355 0.59228057 0.06560994 0.78352314 0.31570554 -0.52786505 -0.9278478 -0.70460314
-0.951412 -1.4440612 -0.12284536 -0.8437914 -0.38823023 -0.49253735 0.076043434 0.017011417
0.033864256 0.25297767 -0.22007303 -0.57081825 -0.88961047 -1.1324368 -0.76076704 0.37347215
-0.18062954 -0.3469259 -0.060128544 -0.27945468 -0.82854664 -0.22382852 -0.67280525 -0.2982646
0.23834589 0.3548195 0.6579384 0.49924275 0.73877054 1.0356363 0.6552289 0.45551714
0.8999804 0.06407476 0.4644003 0.7700541 0.42530492 1.0478413 0.4497597 -0.020164976
0.34529486 0.25910428 0.24015619 0.18111885 0.9373914 0.6354767 0.8862349 0.8332251
1.169851 1.3091171 1.153758 0.91347075 0.7760363 1.1716658 1.1235136 0.703463
1.3418952 1.3005193 0.766795 1.2706362 0.51234645 0.5192306 1.2614665 1.0270494

autoencoder.econv1.bias f4 [32]
00000000: b95b bdbe 07a5 bfbe cbb3 973e 9d29 aabe
00000010: df96 123e 5110 2bbe 128c cebc 42dd b63e
00000020: 3361 8c3c 3245 a83e bf87 f0be d3bc afbe
00000030: 40d8 633e 3c3f eb3e 2d23 5abc a77d 333e
00000040: 937d 18be 99cf 07bf 7973 e4be 20d4 e6bd
00000050: e30b eebe 46e5 a33e 38ed 063e dae1 fd3e
00000060: e19b 02bd 1472 92be a0d3 91be 084a 27be
00000070: b523 993d 1687 173e 76a6 043f 2d08 95bd
-0.3698404 -0.37430593 0.2962936 -0.33234873 0.14315365 -0.16705443 -0.025213275 0.3571568
0.017136192 0.32865292 -0.46978566 -0.3432375 0.22250462 0.45946681 -0.013314051 0.17528401
-0.14891653 -0.53051144 -0.4461935 -0.112709284 -0.46493444 0.3201086 0.1317643 0.49586374
-0.03188694 -0.2860266 -0.2848177 -0.16336834 0.07477514 0.14797625 0.518165 -0.0727695

autoencoder.econv2.weight f4 [32, 32, 3, 3]
00000000: 24e9 703c ad5f 1a3d cec3 d43d 0ede 953c
00000010: 342c ed3d 219c 9d3d cee4 8abb 74ea 733d
00000020: 1f2b 833d c88c 23bc a293 ac3d 665a f23c
00000030: 605e 933d f1af 3e3d e6fd 563d 5ccf 60bb
00000040: e6fa ba3d ea21 a03d 0499 613a ffdc ef3d
00000050: 9b1c ca3d 2d2b 0d3d 8ba4 173e 12fb bf3d
00000060: 687d 113e ba77 123e 89d7 3b3e 01b7 e33a
00000070: d15c a03d 6813 803d 2de2 b03c 4011 143e
00000080: e194 ad3d b974 8d3d 39cd b83d 880b bf3d
00000090: 3d35 40bb 6f3b ff3c c718 0e3d 9a9f 043e
000000a0: 1b9c cc3d e08e 393e 2f8f 4b3d e5a4 d13d
000000b0: 18fe 1c3e 2ff3 2cbc 9c2a 843d 9d24 dc3d
000000c0: d947 663d d719 013e 2519 c43d 2b0d 253d
000000d0: ecd9 473d 4a18 8b3d f071 d03b 3db5 2b3d
000000e0: 473c a93d 1ea9 8b3d 6803 5c3d ed33 d63d
000000f0: 2999 613d 00f8 063e 359e e53d 193a d0bc
00000100: f8ea a93d eaad d43d a6c8 df3c 6549 163e
00000110: 4429 b73d 4a1b ea3d c721 023e 75bf ea3d
00000120: a5c1 d4bc c045 d43d 5546 e63d 68ff 973d
00000130: 031f 963d 4dfd 093e 8a48 003e cd46 173e
00000140: b936 a43d 195b 03bd be84 9e3d 6f4c ce3d
00000150: 03c0 5d3d e026 9b3d 80c8 fe3d 6720 023e
00000160: 9f29 303e 143b 1f3e 4a45 db3d c7c0 463d
00000170: 6384 9c3d 4969 c53d 3277 7e3d 6ee6 063d
00000180: 8e2e ce3c 15b3 a63d ff23 143d 47d0 a33d
00000190: d04e b43d 3fcc fc3c f2eb a03b 77a2 d53d
000001a0: 4ba1 cd3d 0f22 c13d 60e7 4d3d 1977 883d
000001b0: 79c3 2f3c cfcd 523d 7c91 fa3d f3c7 d13d
000001c0: 8851 1b3e 5a19 233e 20bf 013e 92e7 c33d
000001d0: 872a 973d 99af 7f3d 6607 333d ed0f d43d
000001e0: edfb ff3d d1e2 2a3e 4782 173e d5c3 2f3d
000001f0: 116d d83d 2f13 353e 48ad 3f3d 8cb6 743d
00000200: a755 893d bcef 803d b3fc 073e 6fde da3d
00000210: aa5a c53d 950a 9e3d 7f84 ba3d d24c 8cbc
00000220: d1b6 a23d 63c6 533c 3d9c 7e3d 51b7 f53d
00000230: 3cc5 2f3e 09a4 043e a5f9 bf3d 0dfe 173e
00000240: db1e 873d af25 b83d cfec f53c 0d67 863d
00000250: f26b d83d 3f43 113e 8163 873d d92e 2f3d
00000260: 6da2 803d 6470 9c3d b91f 193d 4d05 143d
00000270: 2ea3 e73d 53b5 a43d c56f c93d bf22 b4bc
00000280: f51d a73d 1e1f 763d 6d70 5c3d 0077 843d
00000290: 3ebd d83d 1d4b 583d 53a5 033e c446 d23d
000002a0: 7570 6d3c de4f 373d 2682 9b3d 6f27 11bc
000002b0: 8c00 6b3d 438d 6d3d ed57 d73d 5dba 2e3e
000002c0: c184 fd3d e484 0c3e 9e95 f73d bb49 a73d
000002d0: 881e 52bb c097 b43c e5e7 ac3d 9730 543d
000002e0: e85e 013e d4c5 a03d 85fe 193d bf81 0e3e
000002f0: 216d 3e3d 7ca8 b03c ad9d 7d3d fcd9 853d
00000300: 3c5f 373d dbd5 d23d 8d18 b93d 1b03 b03d
00000310: 6125 273e de73 af3d 32f1 773d 2d5c 4b3d
00000320: d662 643d 16dd c13d fba4 aa3d 0fa3 3e3e
00000330: 1fe1 413d 4eb7 e93d feb5 0b3e de90 14bc
00000340: 6662 8f3b 0fff ff3d 94c0 793d fd1f a03d
00000350: cd81 3a3e 7e7e 113e 2fd4 c03d df00 b63d
00000360: ab0d 313c e4d1 9f3d f930 d43d f41e 0e3d
00000370: 87a0 763d 0a8c f23d c210 ca3d abe5 133d
00000380: c73b 843d b074 143d 2566 cc3d e611 cabb
00000390: dcf7 b63d 4e86 fa3d 8cca 5f3d dcd7 903b
000003a0: 8814 bf3d d81c ab3d 974d 273d d03b 153d
000003b0: d0ed 263d 4483 b73d 4876 c83d 82e7 fa3d
000003c0: 8564 c4bc 7ab1 ae3d 1e86 093e b19f b63d
000003d0: 42f5 e23d 0b14 d13d cf66 ca3d f114 803d
000003e0: f1b2 a73d bbde 333d 0d3e ff3d 636a 993d
000003f0: 2747 ac3d eeec 603d 97e6 233c 30f8 2b3d
0.014704023 0.0376889 0.10388909 0.01829436 0.11580697 0.07695795 -0.0042387014 0.059549764
0.06404709 -0.009982295 0.08426596 0.029584121 0.07195735 0.04655451 0.05248823 -0.0034303283
0.09129886 0.078189686 0.000860587 0.117120735 0.09868737 0.034465004 0.14808862 0.0937406
0.14207995 0.14303485 0.18343939 0.0017373265 0.07830203 0.062537014 0.021592224 0.14459705
0.08475662 0.06907029 0.09023518 0.09328371 -0.0029328607 0.03115627 0.0346916 0.12951508
0.09990712 0.18120909 0.049697097 0.10236529 0.15331304 -0.010556026 0.064534396 0.10749171
0.056220863 0.12607513 0.095751084 0.04029576 0.04879181 0.06791742 0.0063612387 0.04192089
0.0826345 0.06819366 0.053714186 0.10459123 0.055077706 0.13180542 0.11211816 -0.025418328
0.0829677 0.10384734 0.027317356 0.14676435 0.08943418 0.11430986 0.12708198 0.11462299
-0.025971243 0.10364866 0.112438835 0.07421762 0.07330134 0.13475533 0.12527671 0.14773102
0.0801825 -0.0320693 0.07740162 0.10073172 0.054138195 0.07575774 0.12440586 0.12707673
0.17203377 0.1554988 0.10706575 0.04852369 0.07642438 0.09639222 0.062125392 0.0329346
0.025168683 0.08139626 0.03616714 0.0799871 0.08804095 0.03085911 0.0049109394 0.10431378
0.1004053 0.09430324 0.050269485 0.06663341 0.010727757 0.051465806 0.1223478 0.102432154
0.1516782 0.1592764 0.12670565 0.09565653 0.07381158 0.062423322 0.043708228 0.103546
0.12499223 0.16688086 0.1479579 0.04291137 0.10567678 0.17683099 0.046796113 0.059744403
0.0670579 0.06295726 0.13279991 0.10686957 0.096364334 0.07716862 0.09107303 -0.017126475
0.07945026 0.012925717 0.06216072 0.119978555 0.17165083 0.129532 0.09373788 0.14843006
0.06597682 0.089915626 0.030020146 0.06562624 0.10567464 0.14185809 0.06610776 0.042769287
0.0628098 0.07638624 0.03738377 0.036137868 0.11310421 0.08042397 0.098357715 -0.021989224
0.08160011 0.06008827 0.053818155 0.0646801 0.1058297 0.05280601 0.12856035 0.10267404
0.014492144 0.0447539 0.07593183 -0.008859499 0.05737357 0.057996046 0.105148174 0.1706328
0.123788364 0.13722569 0.12089084 0.0816836 -0.0032061655 0.022045016 0.08442668 0.05180415
0.1263386 0.07850233 0.037596244 0.13916682 0.046490792 0.021564715 0.06191795 0.06535718
0.044768557 0.10294696 0.09037886 0.08594342 0.16322853 0.08567022 0.060532756 0.049648453
0.05575832 0.09465997 0.08332249 0.1861689 0.047333833 0.11411916 0.13643643 -0.009067742
0.0043757437 0.124998204 0.060974672 0.07818601 0.18213578 0.14208409 0.09415471 0.08886885
0.010806481 0.07803705 0.10360903 0.034697488 0.060211685 0.118431166 0.098664775 0.0361077
0.06456714 0.036244094 0.0998042 -0.0061666844 0.08933994 0.12232648 0.054636523 0.0044202637
0.09330088 0.08355111 0.04084548 0.036433995 0.04075414 0.08960584 0.09788185 0.12251188
-0.023973713 0.08529945 0.13430068 0.089171775 0.110819355 0.10208901 0.098828904 0.06253994
0.08188427 0.043913584 0.12463007 0.07490995 0.08412009 0.054913454 0.010003707 0.041984737

autoencoder.econv2.bias f4 [32]
00000000: 5e93 da3d 825d 8e3d c43f 7cbd fc6d bd3c
00000010: 8f61 b53d 0c5c 993d ab2c d5bd 19f2 3c3d
00000020: dd75 eabc fdcb dcbb 93a4 c0bd b01e e1bc
00000030: 9777 febc bc97 f23c 2662 aabd e953 9fbc
00000040: d873 d5bd 5bf0 fb3d edb5 993b cf1a e03d
00000050: bb94 b8bd b5aa ccbd b17f cabd 9601 9c3c
00000060: 72a2 af3d a49d e83d 31b7 9a3d 1da3 3dbc
00000070: d5fb 923d 8a4b a43d a81b 3fbd 7dc3 09bd
0.10672639 0.06951429 -0.06158425 0.023123734 0.088564985 0.0748826 -0.1040891 0.04612932
-0.028620655 -0.0067381845 -0.0940639 -0.027480453 -0.031062884 0.029613368 -0.083195016 -0.019449191
-0.10422486 0.123017035 0.0046908767 0.10942613 -0.09012743 -0.09993497 -0.098876365 0.019043725
0.08575906 0.113581926 0.07554472 -0.011574534 0.071769394 0.080222204 -0.046657234 -0.033633698

autoencoder.econv3.weight f4 [32, 32, 3, 3]
00000000: a6fa 713d de9c c73d 9856 9f3c 1842 0d3e
00000010: f885 cdba e228 573c b742 4d3d 24ab 5bbd
00000020: 10f5 69be 0c15 1c3e bbdf d33d b199 19be
00000030: b54a 06be cc59 cc3d a826 a2be 761e 34bd
00000040: d8cb 03be 25f0 aebd 8f1e 3e3e 85e9 643e
00000050: 7bfa 3b3f 39db 473e fc43 103f 8d3c e43d
00000060: 7521 c7be 060f 963c d074 48bd 807e 7e3d
00000070: 63c9 443e a63a e43c 89ac 3b3d e57f 453e
00000080: faaf 78be a920 67be 7a03 27be 5d9d 10bd
00000090: 8f5e 373e ccdd ea3d 56ea e93c 1ddf 3a3d
000000a0: a20f 8b3d 18d9 97bc 4ccf 36b9 c8a1 cdbd
000000b0: 185a 4abe ce51 2a3e c69b c73d a8e7 733e
000000c0: 76ca 873e b8e4 e9bc d0b7 a13d db6e 963e
000000d0: 2b4b 853d c6fd f33d 4af7 c23e 2860 aa3c
000000e0: ae41 5bbd 1469 2bbe 5e12 413f 6717 a43d
000000f0: f06b 3fbe 0395 9e3d 3dae bc3c e978 8a3e
00000100: 6fe5 9f3e 9498 f1bd 13a0 4c3d aa9f 4a3e
00000110: 0cb6 2b3d 4259 04bd 929b c6bd 00eb 4cbe
00000120: 034e a8bd cc0c 87be 4a0a 193d 866a 1cbd
00000130: 0d82 a3bd 2cae 87be 5e69 eebe f3d9 a4bd
00000140: 6a41 023d dc96 733d 8edf 833e baee 1e3e
00000150: 6540 46be 8ca6 223f 475f 8bbe 1aa8 edbe
00000160: 840d 84bc df63 223b 05f7 8c3e 6599 5b3e
00000170: 2af3 18be 1575 61be 4bfb 573e 3234 803c
00000180: ba04 abbd d9f4 c4bd ceda 42be e49c b83d
00000190: 168a 8c3d e4f6 823d f584 f53d 232c 12bd
000001a0: 8108 0cbe 10ec ba3c d166 eebc e068 c83d
000001b0: 37d4 633e 62fd 383e 74b3 09be eeb5 89bd
000001c0: 90f9 ad3e feb9 0fbe cb97 16be 58fe 06be
000001d0: 5184 44be c166 de3d 0adc 6c3d ecaf 423e
000001e0: d27d 58be 0264 953e ebd9 c0be 47fc a8be
000001f0: 91ac 3fbe 67c3 5f3e da98 dfbd 6393 d53d
00000200: 2b67 033e 9165 a23e 3221 023f e6e2 9fbe
00000210: 925a 2dbe 18b7 c6be c417 3d3d cd36 7fbe
00000220: fa45 393d c4e3 82bd c75f b23b 9152 e03d
00000230: 8d0d 0fbf 35ed 42be d2f6 eebe 8d1c 9bbe
00000240: 3862 7d3e 232a 0d3e 090f 613d 77ea 41be
00000250: 2392 1e3e 4b92 b0be a362 34bc 1c54 073e
00000260: 2818 95be e005 073d 5a93 1b3d 8d1c ac3a
00000270: c478 3d3d c5c3 6b3e f139 b4be 3430 5dbe
00000280: 967d c1be 0b04 13be 0b1f 953d 9102 1f3e
00000290: 7dd6 cdbd 183a 4abe 4ddf b33e 8411 c6be
000002a0: 0cab 4fbe bcdb 1ebe 0879 52be 9da1 c33d
000002b0: 8b05 a83d 2fa7 30bd 9281 cd3d d1be bc3d
000002c0: 6cd3 c5bc 028d 273d 15a5 debc 7f10 57be
000002d0: e031 93bd 497a 0b3e a6fa a0bc 580f c23e
000002e0: 4e94 46be ebc4 45bf d7bc e7be 8696 633c
000002f0: 5edd 00bf 910c e03e 0bc9 af3d a921 243e
00000300: 1eae 02bc 224a b73f 912c d43e f85b d6bd
00000310: ffe0 0f3e 626e 453d 87e3 153e 7b9c be3c
00000320: 5f63 41bd 60b3 a93b fcb9 8e3e 7e9f 3ebe
00000330: 9927 e7bd b165 f8bd d280 5ebe 45ae 0f3e
00000340: 208f 0f3e ced6 d0bd 1054 0ebe 9a78 9f3e
00000350: 71e3 1fbe e66a 78be 5ffb 78be 125b 54be
00000360: f20e 1d3e 37dc a13d 065b 623d f354 ca3c
00000370: 5004 dd3d 47fc 0cbd fa65 99bb d896 5fbb
00000380: 451e 24be ef66 aa3d acd2 ef3c c325 423c
00000390: d0a6 9b3d 2905 873d 37e4 afbc 1397 f63b
000003a0: 5789 b1bd 268b 75be 6a34 1e3e 6b69 8f3d
000003b0: 31f6 3bbc 0f35 2a3d ee93 b73c ff4f 47bd
000003c0: 821c ae3b 1786 acbc 7184 49be 94b8 85bd
000003d0: c4f1 e0bc 694b 1e3e 9256 103e c71a f9bb
000003e0: 438e 123e 7b43 bd3c 007e 32bd b536 cfbd
000003f0: d21c 443e 7f46 523e 48a4 c8bd 4a4f bebd
0.059076928 0.09746717 0.01945047 0.13794744 -0.0015680185 0.013132306 0.050112452 -0.05363001
-0.2284739 0.15242404 0.103454076 -0.15000035 -0.13114436 0.09978065 -0.31670117 -0.043974362
-0.12870729 -0.08541898 0.18566345 0.22354706 0.7342908 0.1951722 0.56353736 0.11144362
-0.38892713 0.01831771 -0.048939526 0.06213236 0.19217448 0.027859997 0.04581884 0.19287069
-0.2428588 -0.22571053 -0.1630992 -0.035306323 0.17907165 0.11468086 0.028554123 0.045622934
0.06790091 -0.018536136 -0.00017434097 -0.10040623 -0.1976093 0.16632769 0.09746508 0.23818839
0.26521653 -0.028551444 0.078963876 0.2938145 0.06508478 0.11913638 0.38079292 0.020797804
-0.053529434 -0.16739303 0.7541865 0.08012276 -0.18693519 0.077432655 0.023032302 0.27045372
0.3122973 -0.1179668 0.049957346 0.1978747 0.04192166 -0.032311685 -0.096976414 -0.2001152
-0.082180046 -0.2637695 0.037363328 -0.038187526 -0.079837896 -0.2650007 -0.46564764 -0.08049383
0.031800665 0.059470043 0.25756496 0.15520754 -0.19360502 0.6353538 -0.27221128 -0.46417314
-0.016119726 0.0024778766 0.2753221 0.21445234 -0.1493651 -0.2201732 0.21091954 0.015649889
-0.08350511 -0.096170135 -0.1902878 0.090142995 0.06862275 0.06394747 0.1198825 -0.035686623
-0.13675119 0.022817641 -0.029101761 0.09785628 0.22248922 0.18065408 -0.13447362 -0.067241535
0.33979464 -0.14035794 -0.14706342 -0.13182962 -0.191911 0.108594425 0.057827033 0.19012421
-0.21141747 0.29177862 -0.37666258 -0.33004972 -0.18718173 0.21851884 -0.10917826 0.104285024
0.12832324 0.31718114 0.508319 -0.31227797 -0.16929081 -0.38811564 0.046165243 -0.24923249
0.04523275 -0.06391099 0.0054435465 0.10953248 -0.5588005 -0.190358 -0.46672684 -0.3029522
0.24744499 0.13785605 0.05494598 -0.18937097 0.15485434 -0.34486613 -0.011009845 0.13215679
-0.29119992 0.032964587 0.037982322 0.0013131067 0.04625775 0.23023899 -0.35200456 -0.2160042
-0.37791127 -0.14357011 0.072813116 0.15528323 -0.10050676 -0.19748724 0.35131302 -0.38685238
-0.20280093 -0.1551351 -0.20553982 0.0955231 0.08204182 -0.04312819 0.10034479 0.09216083
-0.024148665 0.04090596 -0.027178327 -0.21002387 -0.07187247 0.13620867 -0.019650768 0.3790233
-0.19392511 -0.772536 -0.4526126 0.013890868 -0.5033778 0.43759587 0.08583268 0.16028465
-0.007976083 1.4319499 0.4144025 -0.104667604 0.14050673 0.048200972 0.14637576 0.023267975
-0.04721391 0.005178854 0.2787627 -0.18615529 -0.112868495 -0.12128771 -0.21728829 0.14031322
0.14019442 -0.10197221 -0.13899255 0.311467 -0.15614106 -0.24259529 -0.2431464 -0.20737866
0.15337732 0.07903331 0.055262588 0.02469871 0.10791838 -0.034420278 -0.004681346 -0.003411701
-0.16027172 0.08320414 0.02927526 0.011849823 0.07600176 0.06592781 -0.021471126 0.0075253337
-0.086687736 -0.23978862 0.15449682 0.07002529 -0.011472271 0.041554507 0.022409406 -0.048660275
0.005313457 -0.021060033 -0.19679429 -0.06529346 -0.027459033 0.15458454 0.14095524 -0.007602069
0.14312081 0.023103466 -0.043577194 -0.101178564 0.19151619 0.20534705 -0.09796959 -0.09292467

autoencoder.econv3.bias f4 [32]
00000000: f353 ae3d b48e 3c3d 9550 0cbe 4743 a23d
00000010: 8d17 913d d52a 6e3c fdb0 3e3e 2bd9 67bb
00000020: b20b 98bb 1f46 fbbc e7ed 2abe 2455 e33b
00000030: 7681 e8bc 9d4d d8bc 1505 e9bd c6ba 3ebd
00000040: 2abf 64bb 5418 edbd 5a1b a8bd 1feb e2bc
00000050: 8c28 073d d7bd 96bd 767d d43c c75d 0bbe
00000060: 65df 0d3d ea00 fe3c 0966 a9bd bbf8 a9bd
00000070: 63c2 203d 16a6 babd 01a1 5dbd 44a3 13be
0.08512106 0.04603453 -0.13702615 0.079229884 0.0708457 0.014536579 0.18622203 -0.0035377245
-0.004640066 -0.030673085 -0.16692315 0.00693764 -0.028382044 -0.026404196 -0.113779224 -0.04656484
-0.0034903982 -0.11576906 -0.08208342 -0.027700005 0.032997653 -0.07360428 0.02593873 -0.13609992
0.034636874 0.031006295 -0.08271415 -0.08299395 0.03924788 -0.0911371 -0.054108623 -0.1441775

autoencoder.econv4.weight f4 [10, 32, 3, 3]
00000000: cc04 f73d ea61 4d3a 3533 ccbd 060c 1b3c
00000010: 0ccf 07bd 2820 c53e 00d7 1e3e 33d2 e33e
00000020: 9da6 95be c30a 2b3e f1d6 ce3c 9935 193e
00000030: d9e4 2e3d f4dd e53d ab66 1fbe 7801 6dbd
00000040: 71cf 53bd 1574 b1bd 44a3 d0bc ce35 503e
00000050: 127f e9be f569 523e d13c a63e a700 a03e
00000060: ef5b bbbd 9cbd 28be 944d c63e 8f57 4d3d
00000070: 2ccb d73d 2ee8 20be e6b3 b7bd f3be e4bd
00000080: 7c51 85bd 5fb0 af3d 539a 40be ccd1 d93d
00000090: 388a 443e e000 463e 8e69 27bf 0cef 75bc
000000a0: 0c46 933e 7179 ccbd ecdf aa3d 7c6b 10be
000000b0: 1b54 463e c6e5 983e a070 353d 90ef 2ebf
000000c0: 645c 373d 778f 043e 7ea6 083e 1889 ae3e
000000d0: 9953 ad3d 56fa 203e 9a39 763e 6d56 483d
000000e0: 4143 a6be 1124 c0bd 61d9 ba3e 0108 25bf
000000f0: 38dd 36bd 2e6b 0bbe 6366 893e 22af fb3b
00000100: 5a14 073e cc86 53bd 33e2 60be 9cf6 c6bc
00000110: 0e14 c13d d98d 32be 2489 4e3f 83f9 f5bc
00000120: b536 d33d d44c 753d e2e6 c1bd 3a12 0fbd
00000130: 7f38 77bd 3f8f bcbd 33a8 99bd b9ce 9cbe
00000140: a091 d93d eeca 9f3e 6773 89bd 3a40 ee3d
00000150: 42ee 66be 02bd f83d 6554 17bf 554e 223e
00000160: 2a1a 88be 1799 733e 4fea a83e acab 043e
00000170: 7bd4 f7bd 28e1 ee3d 337c 07be 4108 c53c
00000180: cf7e 5d3e f69b 6cbe 8379 8f3d e39b ad3e
00000190: b9db 97be a5c4 8a3e aaa3 96bd a5bd c4be
000001a0: 3784 99bd 90b4 debd 1ac2 f13e 0c7c 503b
000001b0: ef1e 87bb d20a b13d f9c3 d43b 1a58 ac3d
000001c0: 6857 ee3d 4c28 b43d d9ff 833e 82db fb3c
000001d0: 63d1 083b bd63 473e bc35 cdbd 69c9 89bf
000001e0: 2f51 6b3c 142c f23d 3b4c 0f3e 6779 8e3d
000001f0: f1b9 40be aadf c8be 131d e8bd 9a53 bd3d
00000200: b8d2 893d bdda 4fbe b591 403d 0672 203f
00000210: a08f 97be eb52 033f d7fe 8fbe 11f8 2abd
00000220: 7abf 9b3e 82c0 be3e db09 2d3d 55f5 30bf
00000230: 7b2e 1abe b03b 19be dbd1 e33d f48a 9bbf
00000240: 55e6 b33d d634 9c3d 7747 93be 44d9 48bc
00000250: acb7 153d 9a56 3abd 397c 53be 0cc1 93bc
00000260: 4841 013e 7aba a1bd 7880 9f3c 07b5 62be
00000270: 2597 87bc dfbe 32bd 580a 783e fb66 6c3e
00000280: fb8b 713e d605 93be 86a1 3a3e be26 213d
00000290: 81b0 7ebd 5216 0e3e 4d9c b13c 0ba3 3cbf
000002a0: 1038 343e 8c4b 24be f15f 0e3e b19c fdbd
000002b0: 3019 103e 9fe3 d2bd bc3b 95bd 6452 8abe
000002c0: b48d 49be 3778 11bd 8b85 083e c06f 1f3d
000002d0: cb92 533e 0999 a93d 38ca abbc e148 cdbc
000002e0: f739 8fbf 5364 5c3e c26f 3bbe c41d 353e
000002f0: 48e2 873e bebf 12bc a460 b23d fc23 313e
00000300: a726 02bd c715 4d3d c165 d6be af79 063e
00000310: 37ee 943e e202 d03e 560a 2f3e c96e 9cbe
00000320: 9ddc 9fbd 999a 2abd 8151 693e 038b 053d
00000330: fd08 113d df20 393d e032 e7be c609 453e
00000340: ac46 cabc c78c 803c 90f5 27be 6d61 46be
00000350: 5f83 c93d ad63 04be 4834 74bd 7a86 da3e
00000360: 84a4 d1bd ac01 fcbd 051a 713d 4154 14be
00000370: aabe 09be a21f 6b3d b814 853e 8d78 21be
00000380: 7fe9 5abe 8c24 a43d 0d91 213d a86a d8bd
00000390: 389a 4a3e 384a b43e e184 1ebf 0d8e 4cbd
000003a0: f884 66be 5a97 573e 3038 8c3b ce77 3f3e
000003b0: 6909 0dbe d128 4ebd 95a9 fcbb c0bb f23d
000003c0: f079 41bd 2d4f 22bd 6b37 a43e 77dd 983e
000003d0: 5dcb 733e c56e e7bd de77 81bd 20ec 3bbe
000003e0: 8e6e 893d 530e 463e fd9e 223f 3ed1 bdbe
000003f0: 036e d63e 38b7 0ebe 41f6 8b3d 0de6 c4bd
0.12061462 0.000783472 -0.099707045 0.009463316 -0.03315644 0.38501096 0.15511703 0.44496307
-0.29228678 0.16703324 0.025248976 0.14961852 0.042698715 0.11223975 -0.15566508 -0.05786273
-0.051711503 -0.08664719 -0.025468476 0.20333025 -0.4560476 0.20548232 0.32468274 0.31250498
-0.09148394 -0.1647858 0.38731062 0.05013233 0.10536799 -0.1571357 -0.0896986 -0.11169233
-0.065096825 0.08578562 -0.1880887 0.10635719 0.19193351 0.19336271 -0.6539544 -0.0150106065
0.2876438 -0.099841006 0.08343491 -0.14103502 0.19368021 0.29862803 0.04429686 -0.68334293
0.044765845 0.12945352 0.13344762 0.3408897 0.084632106 0.15720496 0.24045411 0.048910547
-0.32473186 -0.09381879 0.36493972 -0.6446534 -0.044644564 -0.13615105 0.26835927 0.0076807896
0.13191357 -0.051642224 -0.21961288 -0.024287514 0.09427653 -0.17436923 0.8067801 -0.030026203
0.10313169 0.059887722 -0.094678655 -0.03492949 -0.060356613 -0.092070095 -0.075027846 -0.30626467
0.10623479 0.3120951 -0.067114644 0.11633344 -0.22551826 0.121454254 -0.5911315 0.15850194
-0.26582462 0.23788868 0.32991263 0.12956113 -0.12101074 0.11664039 -0.13230972 0.024051787
0.21630405 -0.2310637 0.070055984 0.33907995 -0.29659823 0.27103153 -0.07355435 -0.38425937
-0.07495921 -0.10874283 0.472184 0.003181222 -0.0041235606 0.08644642 0.0064930883 0.084152415
0.11637765 0.087967485 0.25781134 0.030744318 0.0020876757 0.19471641 -0.10020015 -1.076459
0.014362617 0.118248135 0.13993923 0.069567494 -0.18820931 -0.39233142 -0.113336705 0.09244461
0.067296445 -0.20298286 0.047013957 0.62673986 -0.29601765 0.512984 -0.28124115 -0.04174048
0.30419523 0.37256247 0.042245727 -0.69124347 -0.15056793 -0.14964175 0.11124011 -1.215178
0.08784167 0.07627265 -0.2876546 -0.012258831 0.036552116 -0.045492746 -0.20652856 -0.018036388
0.12622559 -0.07896896 0.019470438 -0.22139369 -0.016551564 -0.04363906 0.24222696 0.23086159
0.23588555 -0.2871539 0.18225679 0.039343588 -0.062180046 0.13875702 0.021680975 -0.73686284
0.17599511 -0.16044444 0.13903786 -0.12383402 0.14072108 -0.102973215 -0.07286784 -0.27015984
-0.19682962 -0.035515036 0.13332193 0.038924932 0.20661466 0.08281142 -0.020970449 -0.025059165
-1.1189564 0.21522646 -0.18304351 0.17687136 0.26539826 -0.008956848 0.08709839 0.17298883
-0.031775143 0.050069597 -0.41874507 0.13132356 0.29087994 0.406272 0.17093787 -0.30553272
-0.078057505 -0.041651342 0.22784998 0.032603275 0.035408963 0.045197364 -0.45156002 0.1924201
-0.024691902 0.015692128 -0.16402268 -0.19373102 0.0983951 -0.12928648 -0.05962017 0.42680722
-0.10236457 -0.123050064 0.058862705 -0.14485265 -0.13451639 0.057403214 0.2599237 -0.15768643
-0.21378134 0.08014783 0.03944497 -0.10567218 0.19785392 0.35212874 -0.6192151 -0.049940158
-0.22511661 0.2105383 0.004279159 0.18698046 -0.13773121 -0.050331894 -0.0077106454 0.11852217
-0.04723543 -0.03962629 0.3207353 0.29856464 0.23808046 -0.113004245 -0.06321691 -0.18351793
0.0671054 0.19341402 0.63523847 -0.37073702 0.41880807 -0.1393708 0.068340786 -0.09614191

autoencoder.econv4.bias f4 [10]
00000000: ee36 513d c9e8 eebc 4fce c53c 7b8f 09bd
00000010: 2891 923d 1277 9f3d 4ad6 c6bc a35d 1b3c
00000020: cef5 fd3c e9a3 c83b
0.051077776 -0.029163735 0.024146227 -0.0335841 0.071565926 0.07786383 -0.024272103 0.009482774
0.031000998 0.0061230552

autoencoder.dconv1.weight f4 [10, 32, 3, 3]
00000000: 5d1f aa3e 5289 77bf 429f 823e 7737 ae3e
00000010: d4a4 763e c8e8 f5bd ee6c 2fbf 6ed6 c03f
00000020: 8e68 e13d 3508 de3e 99e6 a13f 236a 8fbe
00000030: 2c87 763e 93cb 113f 129e 44bf 9df4 34bf
00000040: 1bab 15bf d6ec e3be 13b9 533f e55f 93bf
00000050: e8b0 83be eec3 9ebe ac01 bebd 5a83 2dbe
00000060: 5ff4 53bf 960a ba3f 976d e43e 6c15 f63e
00000070: 37ec 5d3f 8a1f 8dbe 4c9c ac3d 1742 3a3f
00000080: 573b 63bf d534 4cbf 9e22 1bbf 201b a7be
00000090: 3296 513e f263 a33f 8a23 a03d 3ab9 46bd
000000a0: 081b 683f 52b0 ffbe 2c5b 063d 8bb8 16be
000000b0: 64f3 293e 14cf 0ebc 50ea acbf 3005 86bf
000000c0: 322d eabd 12eb 543f f639 bd3e 83d7 81be
000000d0: 57de b33f 4dca 4a3f ab13 a7bf 94c5 cb3f
000000e0: 95cd 6d3e c09e b63f bf2c 823f 13b2 883d
000000f0: bf21 563f 54fb 8dbf 66f4 acbf 57b3 c2bd
00000100: a780 b8bf 4c2d 96bf ca6d b43b 5c43 453f
00000110: 04cf 023f 2ff9 59be a017 b73f a26b 483f
00000120: 769f a03f d587 6bbf 9189 68bf 7b16 a93b
00000130: ad5b df3f acba ff3e f725 89bf 803d fb3f
00000140: 441a 923f af57 5b3d faf3 afbf 54d0 91bf
00000150: 136e 84bd b92a 993f 6bf8 223f 9aa9 23bf
00000160: 6935 f93f 5424 a03f f700 1b3f 690c 0e3f
00000170: bd78 93be c45a fb3d ad41 543f 0945 36bf
00000180: cd7d 12be fbf5 803f 21e2 933e 9cc7 4dbf
00000190: 6fcf ed3f 6706 773e 4c70 bf3f 7d2c 7c3f
000001a0: 699b be3d 2097 a23e 64b1 9cbf 307f 99bf
000001b0: 127c cebf 612e 953f c2e0 73bf 3131 7f3e
000001c0: ea37 653f bb23 7c3e 2630 98be 41fc 9bbf
000001d0: 71c5 02be 5a4b 9bbe 9698 983f 2a02 9dbe
000001e0: 2e28 c4bf 9ecc 263f e836 e9be 035f 62bf
000001f0: 63b8 76bf c248 603d 78a0 95bf 9b10 a8be
00000200: a917 c53e 4cd2 613f 1cce da3e 2413 acbe
00000210: f3c3 10bf e373 bd3f aec7 0ebe e6d0 2ebf
00000220: 614b d0bf e705 a0bf 17da a5bd 9372 533f
00000230: 6012 623f 55d9 d7be bf93 ef3f b22e 273f
00000240: eecc 98bd 9d9c 41be bf1a 2cbe e0b0 d5be
00000250: 6fd0 1d3f cee5 18bf e543 e83d e172 b33f
00000260: 86d9 783f b579 c23f cd23 dbbe 6bd1 53be
00000270: abac b73b 6787 5e3f 80a1 3e3e 0a54 b7bf
00000280: 7d8f d83f 0d75 853f 26bc 89bf 5fcb ec3f
00000290: ddad 0a3b 2c8d b03f 88b4 463f df7d 7a3e
000002a0: 6332 0c3f 2d5d b3bf bce1 bebf a7f5 82bf
000002b0: 95f4 283f 7650 17bf 1f10 13bf cce8 893f
000002c0: 4502 a93e a6d4 58bf 9c4e 43bf d0bf a43e
000002d0: c070 a93f b089 b83e 8271 69be 2bea c63d
000002e0: 0548 7c3f 7179 a8be 172e 62be 576e 5a3f
000002f0: 5162 983f c003 90bf d8c4 d9bf 1b1b 98bf
00000300: 78e9 20be ff8d 813f f4dd 283f d9fb 2dbf
00000310: 5066 de3f 5529 583f 1035 393f cea9 afbf
00000320: b37a 5bbf 6973 c13d 3567 643e 87df 873f
00000330: 276d 91bf 312e e23f fde1 a83f af73 12bf
00000340: 02fa 233f 93a7 8ebf e94c afbe 37bf 573f
00000350: cefe aebc a93a ebbe e4e9 33bf ee12 20bc
00000360: 3208 6abf 7cac f33f 98e8 b7be f7aa c93f
00000370: 7e7b 833f a4f0 be3e d59f 1f3e 90c8 abbf
00000380: 4bd8 abbf e2fb a5be ee63 d63e 2634 933e
00000390: 0602 27be 6d0b d13e a2f5 4dbf 3e4a 5b3f
000003a0: 3f28 953f fddd f3be 2b9d 803e a66e cfbf
000003b0: 15ba 4abf 9dd1 0cbe 5ddd 663e 62b5 7f3f
000003c0: 2f78 62bf c639 fb3f de73 203f aca1 b73e
000003d0: 9424 9fbf e7a1 a0bf cf75 293d 0d6d 803f
000003e0: 6a20 6e3f f5f2 3dbf 3d90 0d40 9190 bb3f
000003f0: 6bc2 d5bf 91f7 963f b477 2ebf 1841 94be
0.33227053 -0.9669391 0.2551213 0.3402669 0.24086314 -0.1200729 -0.6852559 1.5065439
0.1100627 0.43365636 1.2648498 -0.28010663 0.24075001 0.56951255 -0.76803696 -0.7068575
-0.5846421 -0.4451663 0.82704276 -1.151364 -0.25720906 -0.31008857 -0.09277663 -0.16944638
-0.82794756 1.453448 0.4461486 0.4806322 0.8668856 -0.27563125 0.08428249 0.72757095
-0.8876242 -0.79768115 -0.60599697 -0.32637882 0.20467451 1.2764876 0.078192785 -0.04851649
0.90666246 -0.4993921 0.032801792 -0.14718835 0.16596752 -0.008716363 -1.3509007 -1.0470333
-0.114344016 0.8317119 0.36958283 -0.25359735 1.4052228 0.79214936 -1.3052877 1.5919671
0.23222955 1.4267197 1.0169905 0.0667459 0.8364524 -1.1092324 -1.3512084 -0.095068626
-1.4414262 -1.1732574 0.005506252 0.7705591 0.5109713 -0.21286462 1.4304085 0.78289235
1.2548664 -0.9200414 -0.9083491 0.0051601506 1.7449852 0.49947107 -1.0714711 1.9628143
1.1414266 0.05355042 -1.3746331 -1.1391702 -0.064663075 1.1966163 0.63660306 -0.63930666
1.9469424 1.2511086 0.6054835 0.55487686 -0.28803053 0.122731715 0.82912713 -0.7119909
-0.14305802 1.0075067 0.2888346 -0.80382705 1.8578929 0.24123536 1.4956145 0.98505384
0.09306986 0.31755924 -1.2241635 -1.199194 -1.6131613 1.1654779 -0.9526483 0.24921109
0.89538443 0.24623005 -0.29724234 -1.2186357 -0.1277063 -0.30330926 1.1921566 -0.30665714
-1.5324762 0.6515597 -0.45549703 -0.88426226 -0.963751 0.054756887 -1.1689596 -0.3282517
0.38494614 0.8821151 0.42735374 -0.33608353 -0.56548995 1.4800991 -0.1394336 -0.68287504
-1.6273004 -1.2501801 -0.08098238 0.825967 0.8830929 -0.42158 1.8716964 0.65305626
-0.07460962 -0.189074 -0.16807078 -0.41736507 0.6164617 -0.59725654 0.11341075 1.4019433
0.97206914 1.5193392 -0.4280075 -0.20685355 0.0056053004 0.8692536 0.18616295 -1.4322522
1.6918789 1.0426346 -1.0760543 1.8499564 0.002116076 1.3793082 0.7761922 0.24462079
0.54764384 -1.401281 -1.4912639 -1.0231217 0.659982 -0.5910715 -0.57446474 1.0774169
0.33009544 -0.84699476 -0.76291823 0.3217759 1.3237534 0.36042547 -0.22797206 0.09712633
0.98547393 -0.32905152 -0.22087894 0.85324615 1.1905004 -1.1251144 -1.7013197 -1.1883272
-0.15714061 1.0121459 0.65963674 -0.67962414 1.7374973 0.8443807 0.7234659 -1.3723695
-0.857341 0.09445841 0.22304995 1.061509 -1.1361436 1.7670346 1.3193966 -0.5720777
0.64053357 -1.114489 -0.34238365 0.84276146 -0.021361735 -0.45943192 -0.70278764 -0.009770138
-0.91418755 1.9037013 -0.35919642 1.5755299 1.0272062 0.3729297 0.15588315 -1.3420582
-1.3425382 -0.32418734 0.41873115 0.28750724 -0.16309366 0.4082903 -0.8045293 0.8566016
1.1652907 -0.476303 0.2511991 -1.6205642 -0.7919019 -0.13751836 0.22545381 0.99886143
-0.88464636 1.9627006 0.626768 0.35865533 -1.2433038 -1.2549409 0.041372117 1.003328
0.9301821 -0.7419885 2.2119286 1.4653493 -1.6699957 1.1794301 -0.681514 -0.28955913

autoencoder.dconv1.bias f4 [32]
00000000: ca02 953e f1e6 be3e 6504 1f3e bd0a 823e
00000010: 91fa f73e c9db 5a3e 1327 9e3f 30f0 873e
00000020: 5caf 7a3d b817 763e 9fd7 2b3e 8d81 933f
00000030: c3b4 063f 00bf 0b3f 3ec6 093f bf52 663e
00000040: b527 d23e 7da8 ac3e 3e22 c13f 8d34 2f3e
00000050: 1874 1c3f c4ca 4c3e abd9 433e 6e0d ce3e
00000060: b09f a23f 4ecf 053f 0450 003d 3d24 8e3e
00000070: 0862 ee3e 93a2 c73d 9f9f e13e 6359 893f
0.2910369 0.3728557 0.1552902 0.25398818 0.48433354 0.21372904 1.2355675 0.26550436
0.061202392 0.24032485 0.16781472 1.1523911 0.5261957 0.5458832 0.5381812 0.22492503
0.4104592 0.33722296 1.5088575 0.1710989 0.61114645 0.19999224 0.19126002 0.4024462
1.2704983 0.52269447 0.03132631 0.27762023 0.46559167 0.097478054 0.44067094 1.0730404

autoencoder.dconv2.weight f4 [32, 32, 3, 3]
00000000: cf5a 8f3d ddd3 a0bd b6a9 87be 9894 823e
00000010: 1183 a13e 8811 173f 5170 df3c ccfa 8bbd
00000020: ca7c c1be 8da8 fe3d 62e9 16bf 3e26 0d3f
00000030: 6b37 e8be 89cc 04bf 6cfd 90be bcc0 c3be
00000040: 9e7d f5be c6d9 d8be 160e e6bb abba 4abe
00000050: 2d12 19bf 9833 ae3e 82e3 e53e 8a2d 2d3f
00000060: 04f3 0fbc f7a4 09be 7492 cdbe 264a 813e
00000070: 813c babe 1e41 833e c9a4 a9bd 8317 24be
00000080: 00d1 b1bd cea8 6c3e b32e 0ebe 5627 38be
00000090: 8cae 10be ef5f 99be 1557 0ebf 69e2 e13e
000000a0: bfb8 043f 9444 f83e 0643 063f a26e 893d
000000b0: 3b0a febe 0544 43bd 228b 88be e07b 22bf
000000c0: d26a 863e 5328 0c3f 229d eb3e 45ba 8e3e
000000d0: c6ac 22bd 9c8a f6be 5ac3 b13d ddbc a2bd
000000e0: 1323 0bbf b038 9b3e 6afb 6d3e a3fa 173f
000000f0: 0016 3d3c 2b92 093d 5746 0fbf 018f b7bd
00000100: 4cb6 75bd 3b14 3dbf 3355 a23e 0532 0e3f
00000110: 49ae ee3e 8acf 043f fa50 263f 04fd 02bf
00000120: aba4 37be 18ea b2bd c4f0 37be 2836 8d3e
00000130: cd1b 123f fc73 dc3e 05a2 0ebe 6cb1 cdbc
00000140: 012b 71be e903 4cbe 277c 82be a362 2ebf
00000150: 761d b93e fb11 093f 994a 083f 0025 ff3e
00000160: c11a f83e 6b04 0ebf 98da af3d ce27 c6be
00000170: 53d5 c9bd ef3b 453e 05ad 953e f35b 023f
00000180: 812d 983d 70b5 273a 1be4 eebe 6a98 593e
00000190: 3051 1bbf 98eb 7f3e 834b be3e 5d12 b3bc
000001a0: c6e6 623e 7561 5a3e 0094 76be 946c d3be
000001b0: 2ad8 ad3e 80a6 91be 4289 31bf a717 623e
000001c0: f5b0 3b3e 7502 223d 0ac8 a2bd 3019 cbbd
000001d0: 1cff f8be a873 3d3e bdf3 8ebf 9334 033f
000001e0: 7618 433f 2ee4 bbbc 22de 54be b260 513f
000001f0: 9d7c 14bf e9af 58be 5fea d03d ac07 b9be
00000200: 86eb ef3e 696d cebe 6d06 b2be 2203 afbe
00000210: 3220 b0be b8f5 40bf c7b0 e3be 27cc 993d
00000220: fa31 a2be b65e ccbe dcee 043f e348 7b3e
00000230: 15f5 413e 3916 cb3e fffc 32be 3cfd 9fbe
00000240: 64a2 193d 5d47 66bc c269 51bf c78b 743e
00000250: 19dd f53e 4530 4c3f 5b24 01be 5111 88be
00000260: 0857 c7be e4e8 373d 6ae6 72bd 2efb 46bf
00000270: 6b2b d53e c612 1a3f 2bf6 533f f61b 9fbe
00000280: 09db 053e 34fc 07be 6c3b 3abe 9477 a6bd
00000290: 40be 0bbf 1387 853e 2087 053f 40f9 013f
000002a0: 8ec5 853d 497e 15bd 4d82 95be 312a 923e
000002b0: 603d e4be 16c3 283f 6ed6 5ebe 1230 4abe
000002c0: a170 75be 63c0 4d3c 0b2a 94be e2cd 7c3d
000002d0: 61fa 213d 8bb9 0ebf 3db7 c13e c8a6 c5be
000002e0: 0796 e4be 5b55 80be c93e b7be 462d 05bf
000002f0: 9b4d 31bf df48 05be f8e5 f7bd e8e3 25bf
00000300: b213 d13e 125b f63e 5a85 073f 35f7 6e3e
00000310: 4b66 a5bd 73d9 cebe d3b3 d13d 7bff d2be
00000320: 1640 4d3e cc63 883e d86c 373d 7783 853e
00000330: f419 3a3e df64 17bd 92f6 abbe 13c1 df3d
00000340: a22c c7be 682f 453e 6833 4a3e 8c0a 1a3e
00000350: d93f c23e 3c54 703e 6f41 623d 078f 9bbe
00000360: 9744 333e e646 e3be 5339 a83d fc10 bc3b
00000370: 4f26 933e cf7a 7b3e c177 5a3e e79d febc
00000380: 921f 9fbe 7064 46be 7471 133e 6aba 2fbf
00000390: 580b 6c3e 5a65 833e 9975 a83f 40ec f2be
000003a0: 2ae3 893d b727 28bd 9817 87be 8cff 6abe
000003b0: c048 2bbf b48c 653e 763c ef3e 1600 453f
000003c0: acc1 2fbd ffae eabc ac36 17bf 1c32 a8be
000003d0: 1893 7cbe 5aff afbe 206b 8e3d 85fe c43e
000003e0: 767c 2a3f 8d7e 6e3d 7068 e5bb 8b6d 1fbf
000003f0: 9be6 b73d c976 51bf 04d8 fe3d c357 94be
0.06999742 -0.0785291 -0.26496667 0.25503993 0.31545308 0.59011126 0.027275236 -0.06834945
-0.3779052 0.12434492 -0.58949864 0.5513648 -0.4535478 -0.51874596 -0.28318346 -0.38232982
-0.479474 -0.42353648 -0.007020722 -0.1979777 -0.5979336 0.34023738 0.44900137 0.6764761
-0.008785967 -0.13441835 -0.40150797 0.25251883 -0.36374286 0.25635618 -0.082833834 -0.16024594
-0.08682442 0.23111269 -0.13885002 -0.17983755 -0.14129084 -0.29956004 -0.55601627 0.4411805
0.518444 0.4848982 0.5244602 0.06710555 -0.4961718 -0.04767229 -0.2666865 -0.6347027
0.26253372 0.5474903 0.4601832 0.27876487 -0.03971555 -0.48152626 0.086798385 -0.07946179
-0.54350394 0.30316687 0.23240438 0.59366816 0.01154089 0.033586662 -0.55966705 -0.08962823
-0.059988305 -0.73858994 0.31705627 0.55545074 0.46617344 0.5187918 0.6496731 -0.5116732
-0.1793391 -0.08736056 -0.17962939 0.2758038 0.5707367 0.4305724 -0.13928993 -0.025109015
-0.23551561 -0.19923367 -0.25485346 -0.6811926 0.3615529 0.5354306 0.53238827 0.49832916
0.48457912 -0.5547549 0.08586615 -0.38702244 -0.098551415 0.19261144 0.29233566 0.50921553
0.07430554 0.0006397581 -0.46658406 0.21249548 -0.6067076 0.24992216 0.37166986 -0.021859342
0.22158346 0.2132624 -0.24079895 -0.41293776 0.33953983 -0.28447342 -0.69350064 0.22079335
0.18329223 0.039553124 -0.07948311 -0.099169135 -0.48632133 0.1850115 -1.1168133 0.51252097
0.762092 -0.022935953 -0.20787862 0.8178817 -0.58002645 -0.21160854 0.10200953 -0.36138666
0.46859378 -0.40317848 -0.34770527 -0.34182078 -0.34399563 -0.7537494 -0.44470808 0.07509642
-0.31678754 -0.3991601 0.5192697 0.24539523 0.18941148 0.39665392 -0.17479323 -0.3124789
0.037508383 -0.0140551 -0.81802 0.23881446 0.48020247 0.79761153 -0.12611525 -0.2657571
-0.38933587 0.044899836 -0.05930177 -0.7772702 0.41634688 0.60184896 0.827975 -0.3107602
0.13071837 -0.13279802 -0.1818673 -0.081282765 -0.54587173 0.26079616 0.5215931 0.5077095
0.06531821 -0.036497388 -0.29200974 0.28547814 -0.44578075 0.6592268 -0.21761486 -0.197449
-0.23968746 0.012558076 -0.28938326 0.061719783 0.03954542 -0.55751866 0.37835112 -0.38603806
-0.44645712 -0.2506512 -0.3579009 -0.52022207 -0.6925904 -0.1301608 -0.1210441 -0.6480088
0.4083534 0.48116356 0.52937853 0.2333649 -0.080761515 -0.40400276 0.10239377 -0.4121054
0.20043978 0.2663864 0.044781536 0.26076862 0.18173963 -0.036961433 -0.33586556 0.10925498
-0.3890124 0.19256365 0.19746172 0.15043086 0.37939337 0.23469633 0.055238184 -0.3038256
0.17506634 -0.4439003 0.08214059 0.0057393294 0.28740165 0.24558567 0.21334745 -0.031081153
-0.31078774 -0.19374251 0.14398748 -0.6864382 0.23051202 0.25663263 1.3160888 -0.4744587
0.06732781 -0.0410535 -0.26385188 -0.22949046 -0.6690788 0.22416955 0.46725816 0.76953256
-0.04290931 -0.028647898 -0.590678 -0.3285073 -0.24665487 -0.34374505 0.06954026 0.38475433
0.6659616 0.058226157 -0.0070009753 -0.62276524 0.089795314 -0.81821877 0.124435455 -0.28973207

autoencoder.dconv2.bias f4 [32]
00000000: 20b0 3bbf 44f6 303f 32ee 51bf 48f5 bbbb
00000010: cb01 89bf f39a 59bf bf75 33bf f459 76bf
00000020: b8b4 77bf 04fe 89bf f906 62bf 252b 01bf
00000030: f9cc 08bf 5665 18bf cb99 363f 15bc 29bf
00000040: f08f 62bf d61b 60bf 2b15 3cbf 0509 253e
00000050: 8107 3e3f baac 5cbf db33 16bf 095b 0ebf
00000060: 5d24 2abf 574a 2fbf d342 70bf 064a 42bf
00000070: 9a60 5dbf b120 6abe 602d 41bf 3079 febe
-0.7331562 0.6912577 -0.8200408 -0.005736027 -1.0703672 -0.8500206 -0.7010154 -0.9623101
-0.9676013 -1.0780644 -0.8829189 -0.5045646 -0.53437763 -0.59529626 0.7132842 -0.66302615
-0.8850088 -0.87542474 -0.734698 0.16116722 0.742302 -0.8620106 -0.58672875 -0.5560766
-0.66461736 -0.6847281 -0.93851966 -0.758942 -0.8647553 -0.22864033 -0.7545986 -0.49701834
